Neural Network Quantization/quantized_model.pth (torch, 483122 bytes, 6 tensors)

conv1.weight f4 [32, 1, 3, 3]
0	0x3e90b324	0.28261673
1	0xbd0cafe3	-0.034347426
2	0x3cfa9d94	0.030592717
3	0xbe99547f	-0.29947278
4	0x3e6ac512	0.22926739
5	0x3dca00ef	0.09863459
6	0x3e0740ce	0.13208315
7	0x3e90f5f9	0.28312662
8	0x3d811897	0.06303518
9	0x3e8a8056	0.27051038
10	0x3eb92a99	0.36165312
11	0xbf00ded5	-0.50340015
12	0x3e09de6c	0.13463753
13	0xbd756725	-0.05991282
14	0xbe44ced0	-0.19219518
15	0x3ec89e77	0.391834
16	0x3defb8f9	0.117052026
17	0xbef4ff56	-0.47851056
18	0xbe541225	-0.20710047
19	0x3e9b2351	0.30300382
20	0xbd7f9221	-0.06239522
21	0xbea675ba	-0.32511693
22	0x3e944d1e	0.28965086
23	0xbe1b54b3	-0.15169029
24	0xbe977b88	-0.29586434
25	0x3da898d0	0.08232272
26	0x3e4d838d	0.20069714
27	0x3ca45451	0.020059736
28	0xbe0e44c8	-0.13893425
29	0x3e8b4e13	0.27208003
30	0xbdd2888b	-0.1027995
31	0x3d71867e	0.058966152
32	0xbd28e9be	-0.04123854
33	0xbd0c8d05	-0.034314174
34	0x3e07b117	0.13251148
35	0x3e0209e5	0.12699087
36	0xbe9b2b47	-0.30306455
37	0xbe9e3e27	-0.30906793
38	0xbbe75ea7	-0.007060844
39	0x3e22eee1	0.15911438
40	0xbbe84842	-0.007088692
41	0x3ebc631f	0.36794373
42	0xbc83aa86	-0.016072523
43	0x3ebff7e2	0.37493807
44	0x3e6a48bc	0.22879308
45	0x3e5064c6	0.20350942
46	0xbd64eaf7	-0.055888142
47	0x3d82641f	0.06366753
48	0x3ea2547d	0.31705084
49	0x3ddce3fd	0.10785673
50	0xbe00455d	-0.1252646
51	0x3e90ad90	0.28257418
52	0x3d811a2c	0.0630382
53	0x3d843c6f	0.06456839
54	0xbe287e76	-0.16454491
55	0x3ea13eba	0.3149317
56	0x3ee84ddb	0.453719
57	0xbeb5a8ce	-0.3548035
58	0xbe967b9b	-0.29391178
59	0x3e8f3fc6	0.27978343
60	0xbe7263da	-0.23670903
61	0xbe93f704	-0.28899395
62	0xbe949bfa	-0.2902525
63	0xbd33691a	-0.043801405
64	0xbea7d2d5	-0.3277804
65	0x3e765fa3	0.2405992
66	0x3eb29b2e	0.34884018
67	0x3e299030	0.1655891
68	0x3d9049b8	0.07045311
69	0xbe5a920c	-0.21344775
70	0x3e81bfaf	0.25341555
71	0xbe1cb3cb	-0.1530296
72	0xbe7c6b15	-0.24650224
73	0x3e7c4289	0.24634756
74	0xbe991c3b	-0.2990435
75	0x3d7f71b4	0.062364295
76	0xbd57bc4d	-0.052669812
77	0xbe7eee9f	-0.24895714
78	0xbe25fc71	-0.1620958
79	0xbe3c160d	-0.18367787
80	0xbd31eaa4	-0.04343666
81	0x3e8180f3	0.25293693
82	0xbdc65d8c	-0.096858114
83	0x3e0a83b3	0.13526802
84	0xbe49f267	-0.19721375
85	0x3c98f362	0.018670741
86	0x3ec1ca9d	0.37849894
87	0x3e1464fc	0.14491647
88	0xbe7fa4f2	-0.24965265
89	0x3e9eb4a3	0.3099719
90	0x3d24a958	0.04020056
91	0x3e13c389	0.1443006
92	0xbe51e654	-0.2049802
93	0xbe67888d	-0.22610684
94	0xbeaad365	-0.33364406
95	0xbde5ab53	-0.11214318
96	0x3df6779f	0.12034535
97	0x3ea5ac47	0.32358
98	0x3ea42a30	0.32063437
99	0xbc9d145f	-0.019174753
100	0x3f01d608	0.5071721
101	0x3f05755f	0.5213222
102	0x3ed91ff7	0.424072
103	0xbde62749	-0.11237962
104	0xbe7c180c	-0.24618548
105	0xbeda0a52	-0.42586
106	0xbe9c56b2	-0.30534893
107	0xbec14e64	-0.3775512
108	0xbe883e14	-0.26609862
109	0x3e71a4ac	0.23597974
110	0x3e2e0d21	0.16997196
111	0x3e3a3b36	0.1818665
112	0x3c74956e	0.014928205
113	0x3ec2af88	0.38024545
114	0xbe9931af	-0.29920718
115	0xbea0d615	-0.31413332
116	0xbe417bf0	-0.18894935
117	0x3e403fbe	0.18774316
118	0x3ea34d6a	0.31895
119	0x3e44e8f2	0.19229487
120	0x3e83a779	0.2571371
121	0x3d9a9408	0.07547766
122	0x3eb60ac4	0.3555509
123	0xbf073372	-0.52812874
124	0xbee1d733	-0.44109496
125	0x3e52838c	0.20557994
126	0x3ec5cfe3	0.38635167
127	0x3e0df16c	0.13861626
128	0xbdc2f16b	-0.09518703
129	0xbec12472	-0.37723118
130	0xbea328bb	-0.31867012
131	0xbe82f4b4	-0.2557732
132	0xbe274b51	-0.16337325
133	0xbe3ed764	-0.18636853
134	0xbe31690f	-0.17325233
135	0x3c6e6110	0.014549509
136	0xbde8dc6c	-0.11370167
137	0x3d377e2e	0.04479807
138	0xbe520c51	-0.20512511
139	0xbe6db2f4	-0.23212796
140	0x3e83231f	0.25612733
141	0x3e95aa18	0.29231334
142	0x3e7d1ddd	0.24718423
143	0xbe4f753e	-0.20259568
144	0x3d569467	0.05238762
145	0x3e2088b4	0.15677148
146	0xbe7cb547	-0.24678527
147	0x3e5dc2cb	0.21656339
148	0x3dbcebf6	0.092246935
149	0xbe9ba687	-0.30400488
150	0xbde4c8a1	-0.111710794
151	0x3e89b6c2	0.26897246
152	0x3e2834b0	0.16426349
153	0x3e27c53f	0.16383837
154	0xbe047366	-0.12934646
155	0x3e289db1	0.16466404
156	0x3d1a231e	0.037631147
157	0x3e8ce12c	0.27515543
158	0x3b9ecc4e	0.0048461324
159	0xbdb6d2bd	-0.08926914
160	0x3e8030d3	0.2503725
161	0xbeb14464	-0.3462249
162	0x3e783967	0.24240647
163	0x3ec77d84	0.38962948
164	0x3eac5c33	0.33664092
165	0x3e24053e	0.16017625
166	0xbe669777	-0.22518717
167	0x3e98b76c	0.2982744
168	0xbefb25d3	-0.49052295
169	0xbe833867	-0.2562897
170	0xbee59b91	-0.4484525
171	0xbebfffd1	-0.3749986
172	0xbcad2de2	-0.021140043
173	0xbe93a3ac	-0.2883581
174	0xbe9c6aca	-0.30550224
175	0x3d5e8416	0.054325186
176	0xbddf97ed	-0.109176494
177	0xbeade965	-0.33967128
178	0xbe53dc61	-0.20689537
179	0x3e2afb9b	0.16697542
180	0xbe4d47f1	-0.20046975
181	0xbdf712e5	-0.12064151
182	0xbe97fcb1	-0.29684976
183	0x3e543e1a	0.20726815
184	0xbe615e49	-0.22008623
185	0xbe49cce1	-0.19707061
186	0xbe93e60e	-0.28886455
187	0x3e8bf8f9	0.2733839
188	0x3cbcc365	0.02304239
189	0xbebf8569	-0.3740647
190	0xbeb3246e	-0.3498873
191	0xbe8eac73	-0.27865943
192	0xbe97e23d	-0.29664794
193	0x3e114728	0.141873
194	0xbe53ba9e	-0.20676658
195	0x3ebae976	0.36506242
196	0x3e08751d	0.13325925
197	0xbdb99f32	-0.09063567
198	0x3e426c2e	0.1898658
199	0xbe1b359d	-0.1515717
200	0xbe28f4d9	-0.16499652
201	0xbe960d60	-0.2930708
202	0x3c2bd63b	0.010488088
203	0x3e561c03	0.20909123
204	0xbc8af09f	-0.01696044
205	0x3d811bc3	0.06304123
206	0x3ead4701	0.33843234
207	0xbda2a339	-0.079412885
208	0x3cd1aeed	0.025596106
209	0x3ea2ece5	0.3182136
210	0x3eb5363c	0.3539294
211	0xbdb3c560	-0.08777881
212	0xbe147310	-0.14497018
213	0x3e7b4fed	0.24542208
214	0xbe70655e	-0.23476169
215	0xbe9b0a88	-0.30281472
216	0xbe100f19	-0.1406826
217	0xbdee433f	-0.1163392
218	0x3ebad080	0.36487198
219	0xbeb2de19	-0.34935072
220	0x3e2ca8ee	0.16861317
221	0x3c7f931a	0.015599037
222	0xbeb7fbc2	-0.35934263
223	0xbd138a74	-0.03602071
224	0x3eebfa45	0.46089378
225	0x3d445a1e	0.047937505
226	0xbee05a83	-0.43819055
227	0xbeb7b33c	-0.35878932
228	0xbe77f4e3	-0.2421451
229	0xbe919f67	-0.28441927
230	0x3ea030b7	0.31287166
231	0x3ec0beb0	0.37645483
232	0x3eb557ca	0.3541854
233	0x3e93fed8	0.28905368
234	0xbce49072	-0.027900908
235	0x3e183d4e	0.14867136
236	0xbecfe399	-0.4060333
237	0x3e10c8fe	0.14139172
238	0x3e6aa5a0	0.22914743
239	0xbe830b42	-0.25594527
240	0xbdf0ba51	-0.11754287
241	0x3e8ca6d9	0.27471045
242	0xbd1c47ba	-0.03815434
243	0x3d00ccce	0.031445317
244	0xbecff7bc	-0.40618694
245	0xbeff0728	-0.49810147
246	0x3e8ff698	0.28117824
247	0x3e3af38a	0.18256965
248	0xbe26ed8a	-0.16301551
249	0x3eb6e290	0.35719728
250	0x3d13f430	0.036121547
251	0x3eaadbed	0.33370915
252	0xbd861a5b	-0.06547996
253	0x3e12d125	0.14337595
254	0xbe4b99be	-0.19882867
255	0xbe4118b7	-0.18857084

conv1.bias f4 [32]
0	0xbebbb75d	-0.36663333
1	0xbe9aade1	-0.30210784
2	0x3e87f96e	0.26557487
3	0xba82519d	-0.0009942536
4	0x3e48c703	0.19607167
5	0xbcd68096	-0.026184361
6	0x3d1f0266	0.038820647
7	0x3e514fd9	0.20440616
8	0xbc83392c	-0.016018473
9	0xbdce6d30	-0.100794196
10	0xbe9bb710	-0.30413103
11	0xbca99c82	-0.020704512
12	0x3df8c01d	0.12146018
13	0xbe732842	-0.23745826
14	0x3ec62d8e	0.3870663
15	0xbe6ab9af	-0.22922395
16	0xbdbe13d1	-0.092811234
17	0xbde20442	-0.11035968
18	0xbe588c0c	-0.21147174
19	0x3ecb22c7	0.3967497
20	0xbeaf0ec3	-0.3419095
21	0x3e7deb58	0.24796808
22	0xbe8e9716	-0.27849644
23	0x3e355636	0.17708668
24	0xbe4e61b1	-0.20154454
25	0xbdabff7e	-0.08398341
26	0x3e69e936	0.22842869
27	0x3d5644f8	0.052311867
28	0xbd8c9d23	-0.06865909
29	0x3e22d2b3	0.15900688
30	0x3e05c62e	0.13063881
31	0x3d8bbc48	0.06823021

conv2.weight f4 [64, 32, 3, 3]
0	0xbd83bc30	-0.06432378
1	0xbd80241b	-0.062568866
2	0xbce14aeb	-0.027501544
3	0x3b35b3bb	0.0027725536
4	0xbda61eb8	-0.08111328
5	0xbd493cf6	-0.049130403
6	0x3d8bf891	0.0683452
7	0x3cc071b5	0.02349172
8	0x3bb8f33c	0.00564423
9	0x3d1d32cc	0.03837852
10	0x3c090f3d	0.0083654495
11	0xbcffc06d	-0.031219685
12	0x3d2f4c81	0.04279757
13	0xbb0f01bb	-0.00218211
14	0x3c2ebb80	0.010664821
15	0xbd8ccd3d	-0.068750836
16	0x3cd8826c	0.026429377
17	0x3cf5880e	0.029972102
18	0x3c729137	0.01480513
19	0xbcf0220e	-0.029313114
20	0x3ce27228	0.027642325
21	0xbd0238d7	-0.031792488
22	0xbd78a566	-0.06070461
23	0xbcf3124d	-0.029671812
24	0x3c8b3b5d	0.01699608
25	0xbbf6a0b4	-0.0075264815
26	0xbd356503	-0.044285785
27	0x3cab8591	0.020937713
28	0xbcee7794	-0.029109754
29	0x3d0f4fa1	0.03498805
30	0x3ca80c7f	0.020513771
31	0x3b8fb414	0.0043854807
32	0xbd6cd958	-0.057824463
33	0xbd28c0e4	-0.04119958
34	0x3d5f0bc0	0.054454565
35	0xbd05b194	-0.032640055
36	0x3ca51d71	0.02015564
37	0xbd847963	-0.06468465
38	0xbd87356e	-0.06601988
39	0xbd0b485e	-0.03400456
40	0xbd698b8e	-0.057017855
41	0xbdd4cae5	-0.103902616
42	0x3d2858c6	0.041100286
43	0x3d362bec	0.04447548
44	0xbd5947e5	-0.05304708
45	0xbd2ae727	-0.04172435
46	0xbce6c5f5	-0.028170565
47	0x3cbfc90f	0.023411302
48	0xbd17ca8c	-0.037058398
49	0xbd0395af	-0.03212517
50	0xba8e2eb2	-0.0010847657
51	0x3d9047c2	0.07044937
52	0x3dc4b29e	0.09604381
53	0xbb5e6fe7	-0.003394121
54	0x3d1e6756	0.038672768
55	0xbcda23e1	-0.026628437
56	0xbd212a28	-0.039346844
57	0xbd2c8a81	-0.042124275
58	0x3d0c3c5b	0.034237247
59	0x3bb694ab	0.005571922
60	0x3ba075cf	0.0048968564
61	0x3ab0a566	0.0013477027
62	0xbcdc12b2	-0.026864383
63	0xbc4a0db9	-0.012332373
64	0x3ce8894d	0.028385783
65	0xbd6c8ecc	-0.05775337
66	0xbc504e8b	-0.012714039
67	0xbd76dc78	-0.06026885
68	0xbd931521	-0.071817644
69	0xbcb0f8de	-0.021603044
70	0xbcbfbbbf	-0.023404954
71	0x3b97ff68	0.004638601
72	0x39ddf79a	0.00042336882
73	0xbd63b3e6	-0.055591486
74	0x3cfb75e2	0.03069586
75	0xbc5a4900	-0.013323069
76	0x3d5f0d40	0.054455996
77	0xbc99fc35	-0.01879702
78	0xbcecf44f	-0.02892509
79	0x3b78542e	0.0037891972
80	0x3d59eff2	0.053207345
81	0xbd3fef83	-0.046859276
82	0xbd3f87b5	-0.04676028
83	0xbd43a697	-0.047766294
84	0x3d1d8e8a	0.038466014
85	0xbd9f52bd	-0.07779453
86	0xbd08505a	-0.033279754
87	0x3cd2fe0b	0.025755903
88	0xbc37200d	-0.011177075
89	0xbd7188fd	-0.058968533
90	0xbd3a0c6f	-0.045422014
91	0x3cc984e6	0.024599504
92	0xbd7a3148	-0.061082155
93	0xbbfc0f95	-0.007692287
94	0x3d2f7dbc	0.04284452
95	0xbd042a96	-0.032267176
96	0x3c98f0e4	0.018669553
97	0xbd11e0ee	-0.0356149
98	0xbc92cac8	-0.01791896
99	0x3d6750b8	0.056473464
100	0xbc4d02cc	-0.012512874
101	0x3c918125	0.017761776
102	0x3c79868c	0.015229832
103	0xbd344159	-0.044007633
104	0xbbbbd5f8	-0.005732294
105	0x3d387b74	0.04503961
106	0xbd869aaf	-0.06572472
107	0xbd7c57c1	-0.061607126
108	0xbd05979b	-0.032615285
109	0x3cfe4b35	0.03104172
110	0xbd03b605	-0.03215601
111	0xbc9c1e17	-0.019057317
112	0x3c64229c	0.013924267
113	0x3cb3da7b	0.021954766
114	0x3d34ba43	0.044122946
115	0xba80a6ad	-0.0009815298
116	0x3b8157d8	0.0039472394
117	0xbd39b2b0	-0.045336425
118	0x3d980e47	0.07424598
119	0xbd36c05f	-0.044617053
120	0xbcd0ad77	-0.02547334
121	0xbd9ca79e	-0.07649158
122	0x3d2d6b57	0.042338695
123	0x3df30050	0.11865294
124	0xbc68d4a3	-0.014210853
125	0xbdacb060	-0.08432078
126	0x3d3cd739	0.04610369
127	0x3d079f2a	0.033110775
128	0x3d26668d	0.040625144
129	0x3d0f24d8	0.034947246
130	0xbbb77a65	-0.0055993074
131	0x3c122e38	0.008922152
132	0xbd910a6c	-0.07082066
133	0xbd9f51a1	-0.07779241
134	0xbd00a457	-0.031406727
135	0x3d26159b	0.04054795
136	0xbcf7faf5	-0.030271033
137	0xbc81e22e	-0.015854921
138	0x3d57af64	0.0526575
139	0x3d314d51	0.043286625
140	0xbca8c6cc	-0.020602606
141	0x3d7d9b86	0.061915897
142	0x3c9c4626	0.019076418
143	0x3c900ae1	0.017583312
144	0xbd611c1a	-0.05495844
145	0xbd6eb06b	-0.058273714
146	0x3cbc392b	0.022976479
147	0xbc1d2730	-0.009591863
148	0x3c9d876b	0.019229611
149	0xbd38360b	-0.044973414
150	0x3d752e94	0.059858873
151	0x3c987dec	0.018614732
152	0xbc46ff4b	-0.0121458275
153	0x3b19a6e3	0.002344542
154	0x3bc1e326	0.005916971
155	0x3ce28719	0.02765231
156	0xbc8f4912	-0.017490897
157	0xbd8a67d0	-0.06758082
158	0x3d14af48	0.036299974
159	0xbd4478f0	-0.047966897
160	0xbcbcae54	-0.023032345
161	0xbc0e2117	-0.008674881
162	0x3d689a34	0.056787685
163	0xbcb01658	-0.02149503
164	0x3d17c6a7	0.037054684
165	0x3d16ac5d	0.036785472
166	0x3cde2e44	0.02712167
167	0x3c9d0c71	0.019170972
168	0x3cf6e590	0.03013876
169	0xbc254796	-0.010087868
170	0xbd204ec8	-0.03913763
171	0xb81dacdc	-3.7592705e-05
172	0x3c74049d	0.014893678
173	0x3cada5f9	0.021197306
174	0xbd262950	-0.040566742
175	0x3bb77c7d	0.005599557
176	0xbcc29aef	-0.023755519
177	0xbc4df7fa	-0.012571329
178	0xbd200131	-0.039063636
179	0xbd609a2c	-0.05483453
180	0xbd322ace	-0.043497853
181	0x3c5759b6	0.013143947
182	0xbbfc3dc1	-0.0076977913
183	0xbd34e9ba	-0.04416821
184	0xbc957263	-0.01824302
185	0x3d5b9c3e	0.0536158
186	0x3cc64498	0.02420263
187	0x3bc99c4f	0.0061526666
188	0xbd072c4f	-0.03300124
189	0x3cac1674	0.0210068
190	0x3d177089	0.036972556
191	0x3cf646a1	0.030062975
192	0x3cdeb167	0.027184201
193	0x3ccd379c	0.02505093
194	0x3d4a28c1	0.049355272
195	0xbc894038	-0.016754255
196	0x3d3e2605	0.046422977
197	0x3d653b80	0.055964947
198	0x3cd51110	0.026009113
199	0xbcd77437	-0.026300533
200	0xbc3c6dfb	-0.011500831
201	0x3d1d6e10	0.038435042
202	0xbb6b2941	-0.0035882744
203	0x3c891558	0.01673381
204	0x3c09fbd0	0.008421853
205	0x3d152d10	0.036419928
206	0xbb141714	-0.0022596763
207	0x3d008fef	0.031387266
208	0x3d0abf35	0.033873755
209	0x3cecde07	0.028914465
210	0xbc31d577	-0.010854117
211	0xbd4c0cdd	-0.049816955
212	0x3a0823f5	0.00051933463
213	0xbae7bc4f	-0.0017680022
214	0xbcbd6c7c	-0.023123018
215	0xbc94866b	-0.018130502
216	0xbcb7a76b	-0.022418698
217	0xbd2ebeb7	-0.04266235
218	0x3ca324bc	0.019914977
219	0xbbe65761	-0.0070294593
220	0x3a89a72f	0.0010502095
221	0xbd3bafbf	-0.0458219
222	0xbc9a5642	-0.018839959
223	0xbd132e76	-0.03593298
224	0xbd74395b	-0.05962501
225	0xbca001eb	-0.019532165
226	0xbcb7d77c	-0.022441618
227	0x3c944582	0.01809955
228	0x3d88ef45	0.06686262
229	0x3c5df439	0.013546997
230	0xbdbca7da	-0.09211703
231	0x3c547c39	0.01296907
232	0x3c005522	0.007832797
233	0xbc21c0ba	-0.00987261
234	0xbd789975	-0.060693223
235	0xbca57eef	-0.020202128
236	0xbd366f98	-0.044540018
237	0xbc0d03f7	-0.008606902
238	0xbd6882fb	-0.056765538
239	0x3c625d40	0.013816178
240	0x3c4428f1	0.011972652
241	0x3d5886e5	0.05286302
242	0x3b83cb18	0.0040220134
243	0xbd257047	-0.04039028
244	0xbd00a57e	-0.031407826
245	0x3c8c29c2	0.017109755
246	0x3d5d9b2b	0.054103058
247	0x3d84956b	0.06473812
248	0xbc383b17	-0.011244557
249	0x3c9d0111	0.019165548
250	0x3d771b2b	0.060328644
251	0x3d5f3f24	0.054503575
252	0xbb66afe9	-0.0035200065
253	0x3be4216e	0.006961993
254	0xbd2c46eb	-0.04205982
255	0xbd1fe002	-0.03903199

conv2.bias f4 [64]
0	0xbce65e0c	-0.028121017
1	0x3c91bffb	0.017791739
2	0xbd55e704	-0.052222267
3	0xbd150b23	-0.036387574
4	0x3c2d266c	0.0105682425
5	0x3c29dd86	0.010367757
6	0xbdaacc72	-0.08339776
7	0xbd5f5e6f	-0.05453342
8	0xbd518671	-0.051153604
9	0xbc1ccf84	-0.00957096
10	0xbc3d59f5	-0.011557092
11	0xbdb361a7	-0.0875886
12	0x3c41d1cf	0.011829807
13	0xbd7643ab	-0.060123127
14	0x3d0618f4	0.03273864
15	0xbd368f81	-0.04457045
16	0x3c80ac7e	0.01570725
17	0x3c6167de	0.013757674
18	0xbd9432be	-0.07236241
19	0x3baaf63e	0.0052173426
20	0xbc26344c	-0.0101443045
21	0xbba6c0f3	-0.0050889193
22	0xbd305751	-0.04305202
23	0xbd3bcb72	-0.045848317
24	0xbd4c0623	-0.04981054
25	0xbda0b282	-0.07846548
26	0xbd87b56e	-0.06626402
27	0xbc0b4434	-0.008500148
28	0x3ce81217	0.028328938
29	0xbc9a1a2d	-0.01881131
30	0x3ca1c4eb	0.019747218
31	0xbd20be91	-0.03924424
32	0x3d005a5f	0.031336185
33	0x3ba999aa	0.005175789
34	0xbd2d8dab	-0.042371433
35	0xbc5980a5	-0.0132753
36	0x3d2f6877	0.042824235
37	0xbd9aa85b	-0.075516425
38	0xbd15133e	-0.036395304
39	0xbd3673ae	-0.044543914
40	0xbc69393c	-0.014234837
41	0xbccd612c	-0.02507075
42	0x3c73f168	0.014889099
43	0xbd51c23c	-0.051210627
44	0xbd98a057	-0.074524574
45	0xbd5a29c5	-0.05326249
46	0xbd9107e3	-0.070815824
47	0xbd187d10	-0.037228644
48	0xbd6ccdee	-0.057813577
49	0x3ccecf0c	0.025245212
50	0xbccdc557	-0.025118513
51	0xbd2eee4a	-0.04270772
52	0x3c94a0f4	0.018143155
53	0xbc64a834	-0.013956118
54	0xbcd65812	-0.026165042
55	0xbd988cda	-0.0744874
56	0x3c2f2d1c	0.010691907
57	0xbd6400a3	-0.05566467
58	0xbc414d00	-0.011798143
59	0xbd84e870	-0.064896464
60	0xbb0cc80e	-0.0021481547
61	0x3cecc9f9	0.028904902
62	0xbd80c661	-0.06287838
63	0xbd0ef35e	-0.03490006

cpu f4 [128]
0	0xbc9bc572	-0.019015048
1	0x3c75b252	0.014996128
2	0xbc59c90c	-0.013292562
3	0xbc807e45	-0.01568521
4	0xbbf2322c	-0.007391235
5	0xbbd7ede2	-0.006589637
6	0x3cd30d86	0.025763284
7	0xbc8530b5	-0.016258577
8	0xbb6b2e22	-0.0035885652
9	0x3b4a353f	0.003085449
10	0xbc91f6ca	-0.017817874
11	0xbc474e96	-0.012164732
12	0xbcb87c38	-0.02252017
13	0x3c36cafa	0.011156792
14	0x3c49fc3b	0.012328203
15	0x3c980652	0.018557701
16	0xbc8446cd	-0.016147042
17	0x3c517a03	0.0127854375
18	0xbc91d990	-0.017803937
19	0xbc534ef0	-0.012897238
20	0x3cfbcab2	0.030736301
21	0x3bbb4c27	0.005715865
22	0x3c54862c	0.012971442
23	0x3cb578f9	0.02215241
24	0xbc15f6d2	-0.009153085
25	0xbc9825f9	-0.018572794
26	0xbbff2f8e	-0.0077876514
27	0xbbce1add	-0.0062898234
28	0xbc6fca89	-0.0146356905
29	0xbb98c6b5	-0.0046623596
30	0xbca1b95d	-0.019741708
31	0xbc375795	-0.011190315
32	0xbba2b5b8	-0.00496551
33	0x3c8675b0	0.01641354
34	0x3af61be8	0.0018776627
35	0x3a72b7f2	0.00092589774
36	0xbba6f6fe	-0.0050953617
37	0xba8e425e	-0.0010853519
38	0x3c4ec9cb	0.012621353
39	0xbc740485	-0.014893656
40	0xbc75d443	-0.01500422
41	0x3c0d4865	0.008623217
42	0x3c087e6d	0.0083309235
43	0x3c19c7aa	0.0093859825
44	0x3c41b154	0.0118220635
45	0xbc844a1e	-0.016148623
46	0x3cfd7e69	0.030944066
47	0x3bb80949	0.0056163413
48	0xbbb024cb	-0.00537548
49	0x3c466a5d	0.01211032
50	0xbbf43037	-0.0074520367
51	0x3bd3be1f	0.006461873
52	0x3c8524e3	0.01625294
53	0x3cf5c824	0.030002661
54	0x3cb0b5c3	0.021571046
55	0xbc1c53ec	-0.009541493
56	0x3caccdaa	0.021094162
57	0xbba0d32a	-0.004907985
58	0x3c20e2e5	0.009819721
59	0x3c1f6eed	0.009731037
60	0x3b19115e	0.00233563
61	0x3c7c6870	0.015405759
62	0x3bccd91d	0.006251468
63	0xbb9e45e9	-0.0048301113
64	0xbc67cadd	-0.0141474875
65	0x3cad5057	0.021156473
66	0x3c314660	0.010820001
67	0xbba37051	-0.0049877544
68	0x3c4fdee6	0.0126874205
69	0xbc14ffb1	-0.009094165
70	0x3c67af86	0.014140969
71	0x3b02b145	0.0019942087
72	0xbbfe811e	-0.007766857
73	0xbc098416	-0.008393308
74	0x3ce7d54f	0.028299956
75	0xbc68dc24	-0.014212642
76	0xbc8a0bf4	-0.016851403
77	0xbc28848d	-0.010285509
78	0x3c3ebe82	0.0116421
79	0x3bcc520f	0.006235368
80	0xbc94e7a3	-0.01817686
81	0x3c6a6352	0.014305906
82	0xbbc72b1a	-0.006078136
83	0xbc894ed1	-0.016761215
84	0x3b0ca1a4	0.002145865
85	0x3bffdb15	0.007808099
86	0xbc693718	-0.014234327
87	0x3add6069	0.0016889694
88	0x3c29134d	0.010319543
89	0x3b2027fd	0.0024437897
90	0x3c825a86	0.015912306
91	0xbc04e534	-0.008111287
92	0x3c28a6c7	0.010293669
93	0xb98170ad	-0.00024688747
94	0xba91da3f	-0.0011127664
95	0xbc4fb437	-0.012677244
96	0xbc5a57cc	-0.0133265965
97	0xbc6a1670	-0.014287576
98	0x3d0cd8ea	0.034386553
99	0x3c17a565	0.009255742
100	0x3bcd8b23	0.00627269
101	0x3c518443	0.012787881
102	0xbb240c4e	-0.0025031748
103	0x3b4b5ae6	0.0031029521
104	0x3c12dadf	0.008963316
105	0x3c2e3e80	0.010635018
106	0x3bdd4ca8	0.006753523
107	0x3c863d9e	0.016386803
108	0xbc24d438	-0.0100603625
109	0x3b4a25dc	0.003084532
110	0xbb6139b9	-0.003436668
111	0x3c09bb1b	0.008406426
112	0x3cac0761	0.020999612
113	0xb9bcf491	-0.0003604037
114	0xbacd27a1	-0.0015652069
115	0x3c606193	0.0136951385
116	0xbc162327	-0.009163654
117	0xbaf0e3b0	-0.0018378403
118	0x3c9288da	0.017887522
119	0xba9c4fba	-0.0011925616
120	0x3c424379	0.011856907
121	0x3bc69c03	0.0060610785
122	0x3c47435f	0.012162059
123	0xbc139a87	-0.00900901
124	0xbb329445	-0.002724902
125	0x3a48f2d1	0.0007665577
126	0x3c761ee1	0.015022011
127	0xbb80f02d	-0.003934881

cpu f4 [10]
0	0x3d2d80d3	0.042359184
1	0x3e09540e	0.1341097
2	0xbdbe01d4	-0.092776924
3	0x3d75117a	0.05983112
4	0x3d092f5c	0.03349243
5	0x3c9b85ec	0.018984757
6	0x3cbfaf77	0.023399098
7	0x3db6cec2	0.08926155
8	0xbde3369a	-0.11094399
9	0xbd526a89	-0.05137113
